$HOME/Library/Application Support/Google/Chrome/Profile 5/optimization_guide_model_store/20/E6DC4029A1E4B4C1/E4EB77A45A8F0DF8/model.tflite (tflite, 64852 bytes, 5 tensors)

arith.constant f4 [1, 64]
00000000: 2f7a 13be 5982 303e 40e4 2a3e 4570 99be
00000010: 5767 a3be dfe7 8cbe 4905 f83d 7e7b c53e
00000020: 2b77 8a3e c0e9 9b3e 6694 7ebc d0ec 9abe
00000030: bbd2 c33e effa b0be 35c6 4dbe baf3 14be
00000040: 9387 d03d 5fbf 68be b506 803e 5252 58be
00000050: 241a 94be b2cc 983e 518e a43e a270 71bd
00000060: 3afb 99be c1ac 31be 8626 a0be 1557 153e
00000070: e7f3 123e 0fda 0bbd 4f2e 1ebe 403f 523e
00000080: 792c 1f3e 218e 943e ba90 3abe d14f 8fbc
00000090: db81 7d3e bbd1 f0bd 5a7d 013e 7662 aa3d
000000a0: 8876 22bd 25ed adbd ff44 b1bc d3b8 413e
000000b0: c3b1 723e a6bb 78be fc54 7ebe 998a 83be
000000c0: 2aa0 283e 85da 823d b701 5e3e 3155 1bbe
000000d0: 0c4c 8fbe cdd5 8fbe 3776 2a3e a5c2 3c3c
000000e0: 5570 6d3e 9579 70be 70f0 0dbe 5a82 e23d
000000f0: a716 fe3d 8147 833e 8926 9a3e 5161 93bd
-0.14402078 0.17237224 0.16688633 -0.29968467 -0.3191478 -0.27520654 0.12110383 0.3857078
0.27044043 0.30451775 -0.015538311 -0.302588 0.38246712 -0.34566447 -0.20095141 -0.145461
0.10182109 -0.22729252 0.25005117 -0.21125153 -0.28926194 0.2984367 0.3213983 -0.058945306
-0.30074483 -0.17351057 -0.3127939 0.14584 0.14350854 -0.034143504 -0.15447353 0.2053194
0.15544309 0.29014686 -0.18219271 -0.017494114 0.24756567 -0.11758753 0.12645474 0.08319561
-0.03966382 -0.08492497 -0.021639345 0.18918161 0.23700623 -0.24290332 -0.24837106 -0.2569168
0.16467348 0.063893355 0.21680342 -0.15169217 -0.27987707 -0.28092805 0.16646658 0.011521016
0.23187383 -0.2348388 -0.13861251 0.11060019 0.12406664 0.2564049 0.30107525 -0.07196296

arith.constant1 f4 [64, 128]
00000000: 7188 5e3c 930b 9cbc 0c41 393d f583 be3d
00000010: a90d 5abd e118 9fbd 7865 b03d aee6 f1bd
00000020: 4b13 c1bc 8271 443e f2b8 aa3d 6ceb 0fbe
00000030: 1a50 403e 5039 2e3e c8f6 8a3d 735d 3dbe
00000040: 9e67 4f3e e58a 1a3e fbe9 7a3d 3869 cdbd
00000050: 5c6d 13be 982e aebc 20ab a33d aa43 27bd
00000060: 61b6 a8bd c803 3e3e 63f7 a23d 283a 8dbc
00000070: d45c fa3d eb53 023d 8065 bb3d a148 9d3d
00000080: 98f0 14be 78dd 84bb ca2d 83bd 95f6 133e
00000090: 1d4c 1e3e c4b1 b7bd 777f 47bd 578b a7bd
000000a0: 8a16 313e dcf3 1e3d 70f5 833d 0a17 193e
000000b0: 2083 463e 6069 303e ac5b 1cbe c51f 8fbd
000000c0: 9582 d83d 1c04 90bd 8029 623d 6d8d 28be
000000d0: 3f7e 08be 90f0 a03d 05a6 dc3d f4ce f73d
000000e0: b5ec 073e 061f ee3d 8500 1a3e 9c7f 8e3d
000000f0: 279d 123e f682 873d 95cf 9e3b 2191 ad3c
00000100: 5a11 61bd 18bd 83bd e16e 8f3d 40b8 423e
00000110: 5777 38bd 8365 0f3e 4943 08be afab 803d
00000120: e1ed 873d 8a3f 37bd 446a 983c 1555 293e
00000130: ae9e 1f3e 42cb 41be f54d 6cbd 8c07 203e
00000140: 075e 063e 6ef0 4f3b 06f4 ce3d 6a40 0cbe
00000150: f2ea ec3d 2087 acbd 0aab 18be 03a3 6cbb
00000160: 9a9f a7bd e80f 9a3d d4d4 d23d abd4 6e3d
00000170: d06f 10be 3880 1bbe 5048 12be 961e 10be
00000180: e9e4 a43d d463 a0bd c976 a9bd 6bb3 acbd
00000190: dcb3 933d 99db 283e c369 4fbd feeb 0f3e
000001a0: 30db 38be 11d2 afbd 5a9a 02be 9f51 e6bc
000001b0: 5d8f 18be c3ed b0bd 8339 67bd 39db a03d
000001c0: 5354 f9bd d5e2 1d3e 0e56 84bc fd4d 793d
000001d0: 5f16 e13c 89c0 ca3c 052b 2ebe 1b56 083e
000001e0: 693b d73d 1536 81bc 19a6 bfbd f1af 48bc
000001f0: 5286 b83d 986a 313e 1264 d63d 1871 a1bd
00000200: a8ef 373e 8a45 ccbd 61b7 84bd d4f0 123e
00000210: 84b3 ea3d b5e0 c63c 44f5 d83d d863 c3bd
00000220: 1efa ef3b 2add 303e 77b6 25bd f2d6 053e
00000230: ada9 dc3d b1db aabd 459c b93c 2bcd 4f3d
00000240: 5a4f 02bd 6eaa b93d a4a8 05be fa20 cabd
00000250: cb2d 983d 74d5 9bbd e9b7 163e ce77 2d3d
00000260: 7bfc 8bbd abd8 01be aaf8 a0bc 5f3c abbd
00000270: 1848 073e eb51 b0bc c767 333e e747 473e
00000280: aec0 e53d 9b1d ee3b 9ac2 323e f780 17be
00000290: 1bb9 113c e5c1 103e f70b 413c 1c6a e0bd
000002a0: d24b 10be 8d4b 153e 0de3 a2bc 63a4 db3d
000002b0: 804d 49be 6c38 2c3d b422 06be 67f4 aa3d
000002c0: 5cfe fd3d 4758 6cbd 3920 7f3d a5ad c7bd
000002d0: d4ee 62bd f450 edbd 3e54 a1bd dab5 0dbe
000002e0: ee02 983b 5ecb 053e fb5f e23d 7aab 563e
000002f0: 9356 e9bd 526d 8ebd 5032 88b8 cac5 f73d
00000300: 7355 30be ed6b 9f3d 3556 303e 8274 c2bd
00000310: b025 ff3c 2310 95bd 8171 94bc 7330 903d
00000320: 037b 4b3c 7f77 d33d 6c43 e4bd cb01 74bd
00000330: ea4d b2bd 330d c9bd 6c85 293d 692c c53d
00000340: 041d fbbd cceb 063e 9884 efbc be04 433e
00000350: c8ec 3d3d 8fd4 0fbe e24f e7bd 2853 d4bc
00000360: aa7c e33d 13b2 19be bc3e cb3d 4d0f 31b9
00000370: 5dc3 103e 40f4 143e 92ea 413d 8bd1 82bd
00000380: 582e e0bd eafa dcbd cf04 523e 4dfd 29be
00000390: 40b8 53bd 5544 4cbd 2962 1e3e 105c 6e3d
000003a0: f402 2f3e 3c77 1b3c 6b6e 72bd e75f 39bc
000003b0: 6d95 9ebd 6177 063e 0207 11be dbe8 3d3e
000003c0: 4939 30bb 0c4a 03bc 80e7 843d 1ce1 bc3c
000003d0: b1c5 0e3e 2d06 083e 1588 abbc 46bf 0b3e
000003e0: 05d6 ec3d 70f2 1f3e 83c6 fbbd 90ff 12be
000003f0: f7f7 e73c 7ed3 81bd 679e f6bd 0fb9 8e3c
0.013582335 -0.019048488 0.04522805 0.093025126 -0.053235684 -0.07768417 0.08613104 -0.11811577
-0.02356877 0.19183925 0.08336057 -0.1405465 0.18780556 0.1701405 0.06785351 -0.1849268
0.2025437 0.15092047 0.061258297 -0.100298345 -0.14397186 -0.021262452 0.07991624 -0.040836014
-0.08237911 0.1855613 0.079573415 -0.017239645 0.12224737 0.03181831 0.09150219 0.076798685
-0.14544904 -0.0040547214 -0.06405218 0.14449532 0.15458722 -0.08969453 -0.048705544 -0.08180874
0.17293754 0.03880678 0.06443298 0.14950195 0.19385958 0.17227697 -0.15269345 -0.069884814
0.105717815 -0.07032034 0.05521536 -0.164602 -0.13329409 0.07858384 0.10773853 0.1210002
0.1327389 0.11627011 0.1503926 0.06957933 0.14317761 0.06616776 0.004846523 0.021187367
-0.05494819 -0.06432551 0.0700357 0.19015598 -0.045035686 0.14003567 -0.13306917 0.06282746
0.06637169 -0.04473833 0.018605359 0.16536362 0.15587875 -0.18925193 -0.057691533 0.15627879
0.13121806 0.0031729 0.101051375 -0.13696447 0.1156825 -0.084242105 -0.14908996 -0.0036107905
-0.081847385 0.07522565 0.102945 0.058308285 -0.14105153 -0.1518563 -0.14285398 -0.14074168
0.08051474 -0.07831541 -0.082746096 -0.08432659 0.0721204 0.1649002 -0.05063797 0.14054868
-0.18052363 -0.08584989 -0.12754193 -0.028115092 -0.14898439 -0.086390994 -0.05645133 0.078543134
-0.12174287 0.15418561 -0.016154315 0.06086539 0.027476488 0.024750011 -0.17008598 0.13314097
0.105093785 -0.015772859 -0.093578525 -0.012248979 0.090099946 0.17325819 0.10468306 -0.07882899
0.17962515 -0.09974201 -0.06480289 0.14349681 0.11460021 0.02427707 0.10593656 -0.09540528
0.0073235175 0.17271867 -0.040457215 0.13070276 0.107745506 -0.08342684 0.022657523 0.050732773
-0.031813957 0.0906571 -0.13052613 -0.09869571 0.07430609 -0.07609072 0.14718594 0.042350583
-0.06835266 -0.12680309 -0.019649822 -0.08361124 0.13211095 -0.021523437 0.17520057 0.19461022
0.11218391 0.007266713 0.17457047 -0.1479529 0.00889423 0.14136465 0.011782638 -0.10957739
-0.14091423 0.14579602 -0.019883657 0.10724714 -0.1965847 0.042045996 -0.13099176 0.08347397
0.12402031 -0.057701375 0.06228659 -0.09749917 -0.055403545 -0.11587706 -0.07877396 -0.13838902
0.004639021 0.1306586 0.11053463 0.2096385 -0.11393466 -0.06954445 -6.494357e-05 0.12098272
-0.17220096 0.07784257 0.17220385 -0.09494878 0.0311459 -0.072784685 -0.01812053 0.07040491
0.012419465 0.103255264 -0.11145672 -0.059572022 -0.08706267 -0.09816971 0.041387007 0.09627611
-0.12261394 0.13175887 -0.02923803 0.19044778 0.04636839 -0.14045928 -0.11294533 -0.025918558
0.11107762 -0.15009336 0.09924075 -0.00016885735 0.14137025 0.14546299 0.047342844 -0.063876234
-0.10946339 -0.107900456 0.20509647 -0.16600533 -0.051689386 -0.049869854 0.15467133 0.058193266
0.1709097 0.009488877 -0.059187334 -0.011314369 -0.077433445 0.13131477 -0.1416283 0.18545859
-0.0026889613 -0.00801326 0.064894676 0.02305656 0.13942601 0.13283606 -0.020938912 0.13647184
0.115642585 0.15619826 -0.122937225 -0.14355302 0.028316481 -0.06339167 -0.120419316 0.017422227

arith.constant2 f4 [128, 12]
00000000: 5b94 9c3d 5c0a 163d b9ce 9cbd 4406 04be
00000010: 61a0 dbbd 4dfb 0b3d 9747 82bc 9952 1c3e
00000020: 34ea 32be fa83 f63d b016 903d e6c0 95bd
00000030: 85f0 0d3e 9a81 69be 984e 913d fe69 323e
00000040: 9dc1 dd3d bc18 1bbd 5afb 4e3d 36f7 e0bd
00000050: 3a1f e2bc 4288 06be 0cae 19bd b3af b53d
00000060: 7ab4 423e eefd 683b ff74 9fbd e4e5 263c
00000070: 0f7a 2c3c 453f c0bd 7333 0bbe bccd 9c3d
00000080: ea90 243e 4888 c23d 0628 2a3d f85e 043e
00000090: 1361 f73c 4061 5b3c 86d7 303d f93b b2bd
000000a0: b5bd 35ba ca38 503d 0fe1 86bd f06a 0f3e
000000b0: dccb 26bd 0972 c1bd 9f91 303c 7af1 78bc
000000c0: 4503 bfbd bf6b 4a3e 9a33 58be 7716 5b3e
000000d0: 3909 00be 8a47 4fbc 4fa0 5a3e e3b2 8c3d
000000e0: ca7d 0abe 6c40 dc3d 22e2 a83c 3a63 9f3e
000000f0: 0019 533e 7b17 093e 3ca8 ab3d c871 9bbd
00000100: 3733 83be c6e1 aebd 2f98 f33c 1143 233c
00000110: c97f a33d ca3c 1a3e d96a 10be 497f 303e
00000120: b051 02be a732 71bd 3ae7 213e 59ee 87bc
00000130: 6437 433e defb e8bd 2ce3 803d e579 efbd
00000140: 9d31 583d 3f33 a6bc 114c 043c e861 883e
00000150: ab44 1bbe d0a0 51bd 9cde 1b3c 7bea 9e3d
00000160: b5ba c43d 9230 de3d 3f5d 2fbe 15af 5f3e
00000170: 54e0 983d 20ce a73c f7fb c3bc 8ccd 073e
00000180: 769d 6ebb dfaf 083c f37d 57be e6d5 6b3e
00000190: 97e6 14bc 511a cb3d c1df 3bbc e9e8 12be
000001a0: a6c5 e8bd 6c95 25be 7c13 323e c436 49be
000001b0: 6710 063d 9d07 7f3e 9db9 f93d d81a 42be
000001c0: e3ff ae3d 19dd 19be 0c7a 663d e710 d0bd
000001d0: af93 003e d8e5 2ebe 6462 c5bd 9b1b e83d
000001e0: 732e b23d 58c7 053e 42e5 1ebe 962f f43c
000001f0: 868b 733c 4326 13be f5eb 313e 39f7 273e
00000200: 8d97 1d3e e72a 53bc c612 263e fec6 2ebe
00000210: 4e30 79be 3cc3 24be d4c7 4a3d f978 c03d
00000220: d54a e93c 88b3 f4bd 3a44 4d3e fba9 263d
00000230: 75b7 073e 98e9 05be 574b 9e3d b1f4 92bb
00000240: e654 393e 495d 0b3e dca5 553c c662 0a3d
00000250: 115c 24be daaa 7f3d d521 303e f070 f53d
00000260: 66e3 103e 0778 f33d d57f cfbd a012 e0bd
00000270: 7c73 3abc a1d4 22bd 4224 24be d6aa b9bd
00000280: f2db f8bc 0811 cdbc d0ee ba3d 7901 d7bb
00000290: 120d 30bd 7e9e 393d 4985 9ebb 5397 5fbe
000002a0: fe34 86bc b5e4 253e ff79 eb3d 929e 5e3e
000002b0: b767 f63d 3afc 163e cc70 d53d 8d16 423e
000002c0: 190d 113e 752d 613c 1324 5a3e 2ef3 f83d
000002d0: 9ed3 5dbe 2de4 1c3d 9f27 d9bd 9cf6 07bd
000002e0: b173 ff3c 3359 313e 1f4d 8f3d f6b9 13bd
000002f0: 9b8f a83c ddea f1bd 3d65 45be 6830 993c
00000300: f152 ff3d 7c76 d9bd ff99 72bd b617 4fbe
00000310: 318f 9dbc b637 a7bd 7af9 a23d f937 0c3e
00000320: 6ad5 0f3e a7a4 89bd fd5a d6ba f0dd 343e
00000330: c493 5bbe 8eeb 0e3e 0516 083e c5c5 ecbd
00000340: 4c33 bc3d ea79 f03d d97e ddbd c82c 913d
00000350: 4840 77bd 4afa 14bd 2961 00bd b52c 8a3e
00000360: dcf4 55be 3ac6 3f3d 6785 003e 9556 64bd
00000370: bb3b 5b3e 6016 17be d36d fabd b837 a4bd
00000380: 8bcc 4fbd af4a bf3c 7ca0 f0bc 089d 4abd
00000390: 91b9 d7bc 0ab0 c83c f11a 86bc fe99 e33b
000003a0: efbc df3d 2781 d63d d264 04be 39d0 79be
000003b0: 019d 113e 3de2 e5bd 4fd2 d43d 6e26 5cbd
000003c0: 2eca b23d f621 b33d 4b65 1f3e a367 1dbe
000003d0: 98a3 21be c447 2dbd bcc5 853d 1ca9 4c3e
000003e0: 4d4c 8b3c f7d0 403e dc29 843d 0cb7 073d
000003f0: 3e10 eabd da2b 053e 8d9c 3d3e 0958 47bd
0.07645484 0.036630973 -0.07656617 -0.12893015 -0.10723949 0.034175206 -0.015903277 0.15265884
-0.17472154 0.12036891 0.07035577 -0.07312183 0.13861282 -0.22803345 0.07095069 0.17423245
0.108279444 -0.037865385 0.050532676 -0.10984652 -0.02760278 -0.13137916 -0.0375195 0.088714026
0.19014159 0.0035551745 -0.07785987 0.010186646 0.010527148 -0.09387068 -0.13593845 0.07656428
0.16070905 0.0949865 0.041542076 0.12926853 0.030197656 0.013389885 0.04317429 -0.08702845
-0.00069328706 0.05083541 -0.06585895 0.14005637 -0.04072176 -0.094455786 0.010776906 -0.015194291
-0.093267955 0.19767664 -0.21113434 0.21395288 -0.12503518 -0.012651334 0.21350215 0.068700574
-0.13524547 0.10754475 0.020615641 0.3113039 0.20615005 0.13387863 0.083816975 -0.075900614
-0.2562501 -0.085391566 0.029735653 0.00996472 0.079833575 0.15062252 -0.14103259 0.17236055
-0.12726474 -0.058886196 0.15810862 -0.016593145 0.19064099 -0.11376165 0.062933296 -0.116931714
0.05278169 -0.020288108 0.008074776 0.26637197 -0.15162914 -0.051178753 0.009513523 0.07759567
0.09605924 0.10849108 -0.17125414 0.21844132 0.07464662 0.02048403 -0.023923857 0.13262004
-0.0036409772 0.008342712 -0.2104414 0.23030815 -0.00908818 0.09917129 -0.011466921 -0.1434666
-0.113658234 -0.16170281 0.17390245 -0.19649798 0.032730486 0.24905248 0.12193606 -0.18955553
0.085449 -0.15025748 0.056268737 -0.10159474 0.12556337 -0.17079866 -0.09637907 0.1133339
0.08700266 0.13064325 -0.15517142 0.029807847 0.014864808 -0.14370064 0.17375167 0.16402902
0.15389843 -0.012888647 0.16218099 -0.17068097 -0.24334833 -0.16090101 0.049506977 0.09398074
0.028478066 -0.11948305 0.20045558 0.04068945 0.13253577 -0.1307739 0.07729214 -0.004484736
0.18098792 0.13609804 0.013040032 0.033785604 -0.16050746 0.062418796 0.17200406 0.11984432
0.14149246 0.11888128 -0.10131804 -0.109410524 -0.011380073 -0.03975356 -0.16029456 -0.090657875
-0.030378316 -0.025032535 0.09127581 -0.006561455 -0.042981215 0.045317166 -0.004837666 -0.2183507
-0.01638269 0.16200526 0.11497878 0.21740177 0.12031501 0.14744654 0.10421905 0.18953915
0.14165153 0.013743748 0.21302824 0.12155758 -0.21662757 0.038303543 -0.1060326 -0.03319417
0.031183096 0.17319183 0.069971316 -0.036066018 0.020576289 -0.11812375 -0.192769 0.01869984
0.12466992 -0.10618302 -0.059228893 -0.20223889 -0.019233318 -0.08164923 0.0795774 0.13693227
0.14046255 -0.06720858 -0.0016354021 0.17662787 -0.21443087 0.13957044 0.1328965 -0.11561159
0.091894716 0.11742003 -0.1081521 0.070886195 -0.060364038 -0.036371507 -0.03134266 0.26987234
-0.20894188 0.046819903 0.12550889 -0.055746634 0.21409504 -0.14754629 -0.122279786 -0.0801844
-0.050732177 0.023351042 -0.0293734 -0.049466163 -0.026333602 0.024498004 -0.016370269 0.0069458475
0.10924708 0.104738526 -0.12929085 -0.24395837 0.14220048 -0.11224792 0.10391676 -0.053747587
0.08729969 0.08746712 0.15565984 -0.15371566 -0.15785062 -0.04230477 0.065318555 0.19986385
0.017004156 0.18829714 0.064532965 0.03313355 -0.11428879 0.1300501 0.1851675 -0.04866794

arith.constant29 f4 [64]
00000000: 7e3e 97bc 93ca ed3c fb5e 293d 950f 6bbc
00000010: 5e65 3cbd e278 05bd df9e 83bd 6aa3 37bc
00000020: 41dd e5bd 3830 593d 1729 d6bc a7eb 6a3b
00000030: ac3c 933d 1f27 023c 470c efbc acee eabc
00000040: dfcb 9bbb b8da 41bd 5458 993d 3042 1ebd
00000050: fe0f d0bd 4bbd df3d d8db a13d 389d b5bc
00000060: d353 81bc 2a44 59bd bc3d 83bd 960f 2e3d
00000070: b0c5 2d3d 268b b3bc 5f12 6ebd 53e6 703d
00000080: ff4c ba3c 4273 b73d 4cd1 25bd 96dd 4f39
00000090: d42d d63c bc63 34bd 0cc7 933d 245b 163c
000000a0: 6431 3abc 7f39 d73a cab6 0ebb da4d 4b3d
000000b0: 3a6d 383d 58d2 dcbd f125 60bb eae2 32bd
000000c0: 8d45 8bbd 7018 35bd 7274 8e3d 9084 2fbc
000000d0: 8632 27bd e3b9 da3c a6d8 803c faa3 d4bc
000000e0: f9ba 06bd f5a6 5cbc 865c 34bd 391f 213c
000000f0: 8500 8b3d cc17 a43d 15fa 9d3d 162c 30bc
-0.018462416 0.029027259 0.041350346 -0.014346977 -0.04599511 -0.032585986 -0.06426787 -0.011208395
-0.112238415 0.0530245 -0.02614264 0.0035846026 0.071893066 0.0079438975 -0.029180659 -0.02867826
-0.004754528 -0.047327727 0.074875504 -0.03863734 -0.101593 0.10924777 0.0790326 -0.022169694
-0.01578704 -0.053043522 -0.06408259 0.042495333 0.042424858 -0.021916937 -0.05812299 0.058813404
0.022741793 0.089575306 -0.040482804 0.00019823606 0.0261449 -0.044040427 0.072156996 0.009177003
-0.011364315 0.0016420333 -0.0021776431 0.049634792 0.04502604 -0.107823074 -0.0034202302 -0.043673433
-0.06800375 -0.04421276 0.06955804 -0.010712758 -0.040819667 0.026699966 0.015728306 -0.025957096
-0.032893155 -0.01346754 -0.04403355 0.009834104 0.067872085 0.080123514 0.07713715 -0.010752698

arith.constant30 f4 [128]
00000000: c65c d13a c7d3 fcbc 5241 f0bc 7025 b6bc
00000010: 27c4 ddbb f6b5 23bd 5b9b 1e3b 597b a5bd
00000020: c5fa 0b3d 21ea e0bd 7198 c53d 4228 81bc
00000030: 2fc3 9f3c 1624 783d e3df 9bbc 0cb4 5dbd
00000040: f416 91bd a3cf 41bd d3ac a63c 85e9 3a3d
00000050: 0a8e 1dbc 255a 00bc 8133 a4bc a211 95bd
00000060: b28e aabd 468c 53bc 85a4 823d e7b7 04be
00000070: 9780 c23c 347a 0dbc c9bb 043d b1db aa3c
00000080: 34d4 91bd 23f3 4ebd 65d9 26be 5ae9 9b3d
00000090: a865 c03c 4288 723d 04a7 4c3c 002b 073d
000000a0: 1101 53bd a8bb 003e f03a c0bc 65f3 5fbd
000000b0: 9b7b 01bb 60bd 563d 0e27 20bc 4856 84bd
000000c0: 5ecb 12bc 1dd0 953d 1725 a9bd f9fe a6bd
000000d0: a6db 9d3d 4891 32bc 3375 453d 8303 49bd
000000e0: 0104 863c 859d 843d d955 5dbd 1802 bdbc
000000f0: d85c 9a3b d9b4 ecbd fcce 8dbd e35f b438
00000100: 6d5a 1fbd 0f8a 24bd 4a03 093d 7f25 5c3d
00000110: da32 533c b557 ebbc d544 41bd 2627 00bc
00000120: 3fe8 823a f3c8 cb3b e3d9 87bc e1d3 103d
00000130: 08ee e0bd f61a 92bc d4a4 40bd f205 b6bd
00000140: 1e93 a73c f652 84bc 7bb9 5abd 511e 373d
00000150: 9a5f cbbd 786d 1b3d 1453 84bd 284b f23a
00000160: 2a20 8d3c 8ca0 763d f833 cb3c 3bbe edbc
00000170: 1e99 523c 4412 803d 6ee1 3cbd 09dc 9ebc
00000180: 683f 59bd 8eb8 90bc b57b cdbd 5cb6 49bc
00000190: 2469 12bb 8017 58bd cb39 9dbc b85a ef3c
000001a0: ebfd e0bd 0f90 923c 3fec 013d 7fa4 0e3d
000001b0: 8e22 99bc 4390 a9bc 5801 8fbd ee2c 00be
000001c0: a377 0abd a998 9e3d b5b4 88bd 9d7a 2cbc
000001d0: 9e25 a5bb 6e38 bfbd b91d 13bd b91b 393d
000001e0: 9b4d 83bd 6b91 90bc 545d 3a3d 4b2b 8cbd
000001f0: f9aa dfbc 1508 4d3a e0ca 7c3d 4d99 783d
0.0015973083 -0.030862702 -0.029328022 -0.022234648 -0.006767768 -0.039968453 0.0024201486 -0.08080167
0.0341747 -0.109821565 0.096482165 -0.015766267 0.01950225 0.06058129 -0.019027656 -0.054126784
-0.07084456 -0.04731716 0.02034608 0.045632858 -0.009616384 -0.007833992 -0.02004409 -0.07278754
-0.08327998 -0.012911862 0.06379036 -0.12960778 0.023742957 -0.0086350925 0.03240565 0.02085671
-0.07120553 -0.050524842 -0.16293867 0.07612868 0.023485973 0.059211977 0.0124909915 0.032999992
-0.05151469 0.12571585 -0.023465604 -0.05467548 -0.0019757512 0.052426696 -0.009774936 -0.06461769
-0.008959619 0.07315085 -0.082590275 -0.08154101 0.0770791 -0.010898896 0.048207473 -0.049075615
0.016359331 0.06475357 -0.05403695 -0.023072287 0.004710775 -0.115579315 -0.06924245 8.600929e-05
-0.038904596 -0.040170725 0.033450402 0.053746697 0.012890542 -0.028728345 -0.047184784 -0.007821834
0.0009987428 0.0062190234 -0.016583389 0.035358313 -0.10982901 -0.017835122 -0.047032192 -0.08887853
0.020455893 -0.01615284 -0.053399544 0.044706646 -0.09930344 0.037946194 -0.064611584 0.0018485533
0.017227251 0.060211703 0.024805054 -0.029021373 0.012853889 0.06253484 -0.046113424 -0.01939203
-0.053038985 -0.017666128 -0.10033361 -0.012311544 -0.00223405 -0.052756786 -0.019192597 0.029218063
-0.10985931 0.017890958 0.031719442 0.034824844 -0.018693235 -0.020698672 -0.06982678 -0.1251714
-0.0338055 0.07743961 -0.06675092 -0.01052728 -0.0050398847 -0.09336935 -0.035917018 0.045192454
-0.064112864 -0.017647466 0.04549916 -0.06844195 -0.027303206 0.0007821334 0.061716914 0.060693074
